logs/Rain100L/net_latest.pth (torch_old, 882622 bytes, 16 tensors)

conv1.0.weight f4 [64, 3, 1, 1]
00000000: ca87 e63e 06d0 a2be 6fdf 723c 0fd0 77be
00000010: 822f 913e fc8c d9bc 1e74 db3e 62e7 5abf
00000020: b811 eb3e 2804 3a3d 918d 243f ee46 1ebf
00000030: 16a5 cb3e 5d53 2dbf 0297 763e b0e8 353e
00000040: d873 20bf 3114 553e 46c6 25be 4eb7 06bf
00000050: d921 143f 6987 9dbe 0e3b 103f 0429 4fbe
00000060: a00e 04bf 952c 3c3f 4f69 c6be 75f1 ed3d
00000070: 593f 2ebe e0fa 8d3e d5aa a53e b9e4 1bbf
00000080: 855f 1dbe 0ac4 11bf 0bdb 3d3f d88a dcbd
00000090: 4eca c03c 17d5 54be 27b3 abbd 6111 a53e
000000a0: 3df0 a8be 9765 a4be ed02 fcbd 1bca 56be
000000b0: 9d19 2a3d 97b2 26be bfba d93d 97e9 033e
000000c0: 57bf 583e 8571 b5bd baa6 a63e d853 cf3e
000000d0: 52f6 0abf b72f ab3d de38 81be 753a bc3e
000000e0: d59c c1be 744d 41be 1da7 d83e 10a3 a4bd
000000f0: d827 c0be ad91 babe 140d b53e 51a5 c1be
00000100: 0245 c33e 2e36 aebd 6767 73be 161f 4dbe
00000110: 9f4a d93e c299 bcbc 26bf 6bbe 37fd 5e3e
00000120: f04b 843e 9b50 e03d bce3 a93e 2b62 1b3f
00000130: 1029 81bf 0b39 1c3f 1ba8 6a3e 0dfb 93be
00000140: 0b40 93be b392 46bd 7f65 c63e aaa0 95be
00000150: 9f69 ce3d 70cd 35bf f033 ca3e 6090 4c3e
00000160: 7e0f 07be ecb9 c13e aa59 153e 37ab fbbe
00000170: e1ab 933e 2d90 e9bc 0cec 183f 8283 bdbe
00000180: ac0a 9dbd 758b 233f 5f1d 96be 1e5f ae3d
00000190: 8cbb 73be 3364 2d3e 7f70 0c3d 58f1 ccbe
000001a0: a88c 4c3e 4dc7 32bc d03f c93e 0ae2 66be
000001b0: 9738 fd3d 2fbb e7bd 3ada f0be 8810 1bbd
000001c0: 7aba 4a3e b91c d73e 80ee f53e 08f7 f9be
000001d0: 7701 f23e 1e5a d5be 3132 993e 555e 2e3e
000001e0: 0f2b a4bd 073e d3be d57f 903e 18bb 89be
000001f0: 95cf d33d 2965 acbd 9cc9 7ebe 1241 aa3e
00000200: a49e 4bbe fb25 253e 292c 9fbd 9c0a 453e
00000210: e0bb 343d 1ece 44be 2f8c 1a3e c2d7 c1bd
00000220: 3ff5 cd3e a77d 723e 997d c3bd c561 2f3f
00000230: a2cc b0be 2122 24bf f568 cf3e 352e fb3b
00000240: eb67 b5bc f2db f83e da2c 66be 9971 a3be
00000250: b758 af3e c7e6 cabc 61fa 35be 7345 debe
00000260: b194 9d3e cf6b eebe 126c cb3e e222 bebe
00000270: 63ec b4be fdf5 233f a36e 9fbe ef36 f23d
00000280: 840e 00bf 6d63 a83e 74c4 0abe 1f14 8d3b
00000290: 8b23 6abd 22f8 2abf a96f 0a3f ff33 30be
000002a0: 061f adbd a5ae 113e 843d 0fbd 7a8a 4fbe
000002b0: bd85 a03e 2e17 f0be f695 f43e 87c0 67be
000002c0: e411 793e 2229 f93e 0855 04bf 4d40 613d
000002d0: 960d 5abe 50b5 983e b6ee 21be aee5 ca3e
000002e0: 6ebb 20bd 1cff d3be 1cc9 15bf baa6 f03e
000002f0: 708f f43d eade 9b3d 61a7 08bf 41d5 bc3e
0.45025474 -0.31799334 0.0148237785 -0.24200462 0.28356558 -0.026556484 0.42862028 -0.8550931
0.45911956 0.04541412 0.64278513 -0.6182698 0.39774388 -0.6770533 0.24081042 0.17764544
-0.62676764 0.20808484 -0.16188917 -0.5262345 0.5786415 -0.30767372 0.5634011 -0.2023049
-0.51584816 0.73505527 -0.3875222 0.1161832 -0.17016353 0.27730465 0.32356897 -0.6089588
-0.15368469 -0.56939757 0.7416236 -0.1076867 0.023533966 -0.20784412 -0.0838378 0.32239822
-0.32995787 -0.32108757 -0.123052455 -0.20975535 0.041528333 -0.16279064 0.10631322 0.12882076
0.2116674 -0.08859543 0.32549077 0.40493655 -0.54282105 0.0835871 -0.252387 0.3676335
-0.37814966 -0.18877202 0.42314997 -0.08038914 -0.37530398 -0.36439267 0.3536154 -0.3782144
0.38138586 -0.08506428 -0.23769914 -0.2003139 0.42439744 -0.023022536 -0.23022136 0.21776281
0.25839186 0.10952874 0.3318156 0.6069667 -1.0090656 0.6102454 0.2291569 -0.28902474
-0.28759798 -0.048479747 0.3874931 -0.2922414 0.100787394 -0.710166 0.3949275 0.1997695
-0.13189504 0.3783716 0.14584985 -0.49154064 0.2884207 -0.028511131 0.5973518 -0.37014395
-0.07668051 0.6388467 -0.29319283 0.08514236 -0.23802012 0.16932754 0.034286972 -0.4002788
0.19975531 -0.010911775 0.39306498 -0.22547165 0.12364309 -0.11314999 -0.47041494 -0.037857562
0.19797698 0.420141 0.48033524 -0.48821282 0.47266743 -0.41670316 0.29921106 0.17028172
-0.08016025 -0.4125826 0.28222528 -0.26900554 0.103423275 -0.08417732 -0.24881595 0.3325277
-0.19884735 0.1612777 -0.07772095 0.19242328 0.044124484 -0.19219252 0.15092538 -0.09464981
0.4022617 0.23680745 -0.0954544 0.6850856 -0.34531122 -0.64114577 0.40509763 0.0076654204
-0.022144279 0.48605305 -0.22478047 -0.31922606 0.34247372 -0.024768246 -0.17771293 -0.4341236
0.30777505 -0.46566626 0.3973089 -0.37135988 -0.353366 0.64047223 -0.31139097 0.11826884
-0.5002215 0.32888356 -0.13551503 0.004305377 -0.057162803 -0.6678487 0.5407663 -0.17207335
-0.08453183 0.14226778 -0.034970775 -0.20267668 0.31352034 -0.46892685 0.4777066 -0.22632037
0.24323231 0.48664194 -0.5169225 0.054992963 -0.21294245 0.2982583 -0.15813717 0.39628357
-0.039241247 -0.4140557 -0.58509994 0.47002202 0.11941421 0.07610877 -0.533804 0.3688145

conv1.0.bias f4 [64]
00000000: 0cc5 59bd 17aa f03c 2c3c 913c aad1 45bd
00000010: 2d02 423d 6df6 183e 8555 4c3d 61d3 debd
00000020: 53e9 ce3d c9c8 74bd 7a28 703e 1de3 a5bd
00000030: 3f80 723d f209 e83b c491 243e 454a 153e
00000040: 38b3 c3bd d915 503c 9fa7 e93d c3fe b4bd
00000050: c6a1 d1bd c681 02bd 4c4a ad3d 2f1a 2c3e
00000060: 7a63 8fbe 54c2 6bbd 8a36 053e 6201 22bd
00000070: 7a94 553e 3d67 adbe 10a0 093d 236e 10be
00000080: e639 81be de5d 06bc a11c 113e 563f a2bc
00000090: d992 333e 6a5c 083e acdf 3fbe fbb0 093d
000000a0: 1850 1f3e 010a 093e 5520 5cbd 3291 643d
000000b0: 6930 87bc c68b 9ebe 49f2 92be 71bc 863e
000000c0: 539b 2cbd 2301 6ebc baea 3d3e 53a1 883e
000000d0: cffc c2bc 6f59 153c 2a92 cfbb c3b5 7a3e
000000e0: dc40 643d bdb0 7d3e 2e98 82be 4f7f 483d
000000f0: 78df bbbd 6306 92bc 12c1 4f3d 92e8 373d
-0.053166434 0.02937798 0.017728887 -0.048295654 0.047365356 0.14937754 0.049886245 -0.10880161
0.10103097 -0.059761796 0.2345294 -0.08099959 0.059204336 0.0070812637 0.1607123 0.14579113
-0.09555668 0.012700521 0.11408924 -0.088376544 -0.10235934 -0.031862043 0.08461437 0.16806863
-0.28005582 -0.057558373 0.13009086 -0.0395521 0.2085742 -0.33867827 0.033599913 -0.14104514
-0.25239486 -0.008201091 0.14171077 -0.019805592 0.17536487 0.13316503 -0.18737668 0.033616047
0.15557897 0.13382722 -0.05374177 0.05580253 -0.016502576 -0.30966014 -0.28700474 0.26315644
-0.042140316 -0.014526638 0.18546572 0.2668558 -0.02380219 0.009115561 -0.006334563 0.24483399
0.055725917 0.24774452 -0.2550673 0.048949536 -0.09173483 -0.017825311 0.050721236 0.04489953

block1.0.weight f4 [64, 64, 3, 3]
00000000: c8a9 bb3b 4bfd 483d 988a 24bd cb8a 36bc
00000010: 80ee b93c e28b bfbc cd16 aabc e544 89bb
00000020: 3e6c 14bd 857d 15bc bbc3 363d 0e9d 89bc
00000030: 2214 f3bc cb54 f53c f458 083d 24c9 fdbc
00000040: 92ee d63d c54e 90ba 0649 203c 3d08 89bc
00000050: 9a3d c5ba 3d2a 4a3d be10 90bc 5990 11bd
00000060: d535 e83c 8b6e 563d 3ba1 80bc 3e96 a43b
00000070: 2c0d a5bc cda4 b7bb ea6f 533d c8ca 0abd
00000080: 8534 a3bc fa3f 9bbd ae0f 2ebd db6a 22bd
00000090: 7b9e 7b3b 179f 1e3d ea9b 03bd 80f4 15bd
000000a0: 2908 5f3d 0798 2abd 4014 bd3c cfd9 663d
000000b0: a0ba ec3c ec75 c3bc fc61 bebc d529 503c
000000c0: ed15 643c c503 74bd f3bf 493d 4311 b7bd
000000d0: 5ad9 09bb 83ce 353d 40ed e2bc 186e 02bd
000000e0: e2e9 4fba ee9b d3bc 7297 953d de53 0c3d
000000f0: 6c9b eebc 7805 e13d b39e e5bb 3c66 4cbd
00000100: 87ad 28bb 90c8 753d 3372 30bd 5059 99bd
00000110: 0259 703d e32b b13c 25bd abbd 289c 54bd
00000120: 8429 f53a e6ba 453d b457 afbd 12b8 fd3c
00000130: c6e9 db3c b7d0 99bd e2c1 05bd 6608 e13c
00000140: 7efd ffbc 8a71 583c e492 9bbb 6abd 9d3d
00000150: 50fa 26bd c1b1 f43c ecd2 f5b9 8eea 28bd
00000160: 3432 4dbb 8b48 3cbc 08dc 86bc fe69 20bd
00000170: 2990 e0bc 5941 cbbb 5863 1bbe eb82 af3d
00000180: f95e 2c3d 1d7b 0dbd e1ba 033d 8664 ebbc
00000190: 8e2a ae3d 50a9 073d ad11 5fbc 5844 673d
000001a0: eb88 2aba b0b7 4bbc 3395 ffba c8c5 a2bc
000001b0: eda9 683d ec3e 99bd 41da c2bc 9c0b f73c
000001c0: faf6 3dbd 6830 903d 734f d83c 6f3d f43c
000001d0: c905 0bbc 196b 8ebd 45be 12bc 2bd2 2c3d
000001e0: e71d 133d 66de 62bd 3882 613d f5f9 c8bc
000001f0: b34f 2fbc 0f39 b53d b80a 32bc 4185 86bd
00000200: b8f6 8639 3dd1 b83b 5cb2 0b3d 99f9 6d3d
00000210: 1a32 07bc a092 0cbc c68b 2d3d 6001 d03b
00000220: 9ccc 0e3c 5b12 13bd f354 dcbc 8939 ce3c
00000230: 8b8a 96bc 856f dc3c d235 8a3b 9dbb 713d
00000240: eca2 b73c d739 123d bbe8 b1bb a48c 1dbd
00000250: 9c97 a93d af0d 3ebd 5272 90bb 42f5 df3b
00000260: 4a7b 64bd 73b8 aebd 9ee2 55bc 7851 9abd
00000270: ec1c 583d 7405 f7bb c10e 3b3c 8053 2a3d
00000280: e95b 8d3c 0165 db3c adab 9ebc 7612 6abc
00000290: 9660 bb3c 2626 f0bc ce71 cbbc 6692 cbb9
000002a0: 12e5 5ebc 75db 993d f5b0 163d 52b0 53bc
000002b0: 968c c13c ab96 723b 577a 1f3d 8cc4 c13d
000002c0: 6884 533d c8a6 30bd 6971 e2bc 3b88 66bc
000002d0: 9279 9ebb 35a2 32bd edd1 89bc 4135 9ebc
000002e0: a930 333d e6ae 41bc 99c7 2fbd 38e2 2fbd
000002f0: fa4c 01bc ba0f dd3a 3d5e 40bd 76bd c33d
00000300: f8dd 74bd 7aed 853b 0f1d 2f3d 32f8 95bc
00000310: 70da c63c 2f60 1f3d 7b9f 40bd 1622 2c3d
00000320: c8db 833c 35f1 cc3c 3825 b33c 1bd6 74bd
00000330: acca 49bc 9751 313d a9aa 04bc 28a9 27bd
00000340: e8f8 253d b7a7 36bc 1c7e 18be 2bc3 af3c
00000350: cb67 14bb 6eb5 09be 9052 843d 2a10 c23c
00000360: 247a a8bc 8647 513c f658 ad3c 4761 2a3c
00000370: 5356 513b d25e 58bd 0cd3 003d 8aef 0ebd
00000380: 2a97 3abd 74a7 283d b15b a53c 49b0 e03c
00000390: 9daa b53d 8035 fdbd 970d 5c3c 827c 613d
000003a0: 7c11 71bd 49a7 11bd d002 24bd 051c a2bc
000003b0: b320 b1bc 6928 c9bc 8e9c 803d 7e0b 7cbd
000003c0: 3fce 303c af14 283c 25c3 eabc 6ca5 cc3d
000003d0: 5290 763d f618 6fbd 48fe c13d 9758 503d
000003e0: 983d c8bd 14c5 fe3b 72d3 0d3d 6553 73bd
000003f0: e0ab 2a3c c2e3 593d f642 08bc 9391 60bc
0.0057270266 0.049069684 -0.040171236 -0.011141489 0.022696733 -0.023382131 -0.020762825 -0.004189121
-0.03623604 -0.0091241645 0.044620257 -0.016798522 -0.029672686 0.029947659 0.033287957 -0.0309797
0.104947224 -0.0011009803 0.009783035 -0.016727561 -0.0015048266 0.049356688 -0.017586108 -0.03553805
0.028345982 0.052351516 -0.01570188 0.005022793 -0.020147882 -0.0056043626 0.0516204 -0.033884794
-0.019922504 -0.07580562 -0.042495422 -0.039652687 0.0038394022 0.03872594 -0.032131113 -0.036610126
0.05445114 -0.04164889 0.023080945 0.056360062 0.028897583 -0.02385994 -0.023240082 0.012705286
0.013921243 -0.059573907 0.049255323 -0.08938839 -0.0021034093 0.044386398 -0.02770102 -0.031843275
-0.00079312746 -0.025831189 0.073042765 0.03425967 -0.029126845 0.10987371 -0.007007444 -0.049902186
-0.0025738196 0.060005724 -0.04307766 -0.07487738 0.058678634 0.021627372 -0.08385686 -0.051906735
0.0018704389 0.048273943 -0.0856165 0.03097156 0.02684487 -0.07510512 -0.032655604 0.027469825
-0.031248804 0.013210664 -0.0047477353 0.077021435 -0.04076606 0.029869916 -0.0004688719 -0.041239314
-0.003131044 -0.011491905 -0.016462341 -0.039163582 -0.02741249 -0.0062028584 -0.15174615 0.085698925
0.04208276 -0.034541238 0.032160643 -0.028734457 0.085042104 0.033120453 -0.013615054 0.056461662
-0.0006505388 -0.012433931 -0.0019499421 -0.0198697 0.05680268 -0.074827045 -0.023785712 0.030156903
-0.046378113 0.07040483 0.026405072 0.02981445 -0.008485266 -0.06954021 -0.008956497 0.04219262
0.03591719 -0.055387877 0.055055827 -0.024533251 -0.010700154 0.08848774 -0.010866813 -0.06568385
0.00025742291 0.0056401775 0.034105644 0.058099363 -0.008251691 -0.00857988 0.042369626 0.00634782
0.008715775 -0.035906177 -0.026895976 0.02517392 -0.01837661 0.026908645 0.0042178417 0.059016813
0.022416554 0.03569969 -0.005429355 -0.038464203 0.0828087 -0.04639977 -0.0044081593 0.006834657
-0.05578164 -0.08531275 -0.013054518 -0.0753507 0.052761957 -0.007538492 0.011417092 0.041583538
0.01725574 0.02678156 -0.01936897 -0.014286628 0.022873204 -0.029315066 -0.02483454 -0.00038828253
-0.013604419 0.07512561 0.036789853 -0.012920456 0.023626607 0.0037016075 0.03893503 0.094613165
0.051639944 -0.043127805 -0.027641969 -0.014070566 -0.0048362697 -0.043611724 -0.016823733 -0.019312503
0.043747578 -0.011821484 -0.04291496 -0.04294035 -0.007891888 0.0016865649 -0.046964873 0.09557621
-0.059782 0.0040871473 0.04275232 -0.018306825 0.024274081 0.038910087 -0.047027092 0.042024694
0.01609601 0.02501736 0.021868333 -0.0597745 -0.012316387 0.0432907 -0.008097329 -0.040932804
0.04052058 -0.011148385 -0.14891857 0.021455368 -0.0022644873 -0.13448116 0.0646106 0.023689348
-0.020566054 0.0127734 0.021160584 0.010399169 0.0031942322 -0.052824803 0.03145127 -0.03489641
-0.045554318 0.04117532 0.020185323 0.02742781 0.088704325 -0.1236372 0.013430974 0.05505038
-0.058854565 -0.035559926 -0.040041745 -0.019788751 -0.021622038 -0.024555402 0.062798604 -0.061534397
0.01079136 0.010258838 -0.028657505 0.09992489 0.06019623 -0.058373414 0.094723284 0.050865736
-0.09777373 0.0077749584 0.034625478 -0.059405703 0.010416955 0.053195722 -0.008316746 -0.013706583

block1.0.bias f4 [64]
00000000: cb5e e4bc 7732 4fbc 2398 0ebd 5bc0 32bd
00000010: 2074 9abc 8c32 9cbd 7633 5cbd 8f30 55bd
00000020: 626e 78bd 7f5a 33bd aee1 94bc 62e3 fcbc
00000030: 8ca5 9e3c 9f73 0fbd 0cbf bdbd 4f16 e6bd
00000040: c54a 9cbd f0e5 d7bd b403 fa3b 7ad9 8a3b
00000050: c0ba 50bc b280 94bc a625 6abc d721 1cbc
00000060: 9510 ac3b 3e1c 56bd 6fd6 37bd cbd3 8c3c
00000070: 417e ef3c 42d6 3c3c 82a5 6cbc f5a1 7dbc
00000080: ddfc 45bd e640 f3bc 7317 97bc 8cf4 87bd
00000090: 4d42 22bd 092d 50bb c1b3 bfbc 47e8 2dbd
000000a0: f944 69bc 4d69 c9bc 7066 07bd ecfa 2abd
000000b0: e3e1 42bd d84d 62bd 8b90 a1bd 69a4 12bd
000000c0: e486 73bc fabd 14bd 4137 12bd c5f2 3cbd
000000d0: 6f73 4dbc ebe7 dabc 2b10 173c 3699 36bc
000000e0: d93f 9c3c c29c aabc af40 1dbd 02e8 a2bd
000000f0: 5219 38bd b1c7 f4bc 4ad6 4ebd b8cd 86bc
-0.027877232 -0.012646309 -0.034813058 -0.043640476 -0.0188542 -0.076268286 -0.053760014 -0.052048262
-0.060652144 -0.043787476 -0.018174019 -0.030870143 0.019366048 -0.035022374 -0.09264955 -0.11234724
-0.07631449 -0.10541904 0.007629836 0.004237351 -0.012739837 -0.018127773 -0.014291203 -0.009529552
0.005251 -0.052273028 -0.044882234 0.017190835 0.029235007 0.011525692 -0.014443757 -0.015480508
-0.048336852 -0.029694032 -0.018443799 -0.066384405 -0.03961401 -0.0031765124 -0.023401143 -0.042457845
-0.014237636 -0.024586344 -0.033056676 -0.041743204 -0.047578704 -0.05525002 -0.078888975 -0.035801325
-0.014863703 -0.03631399 -0.035697225 -0.04612996 -0.012539729 -0.026721915 0.009220163 -0.011144927
0.019073414 -0.020826701 -0.038391765 -0.07954408 -0.044946022 -0.029880377 -0.05049733 -0.016455516

block2.0.conv1.weight f4 [64, 64, 3, 3]
00000000: 9f17 b7bc 1bbb e4bc e326 b83c b6d4 bdbc
00000010: ce87 28bc 1949 a4bd 9a93 3dbd 2690 633d
00000020: c505 0d3c 69dd 863d d3f9 073e 9925 a4bd
00000030: 1a21 fa3d a316 8f3d b657 8bbd 532d c33c
00000040: 53bb 4cbc 93cd 6abd 72e1 cf3d f299 0fbd
00000050: c95a b23d 39a5 183c 22dc 32bd 0309 4d3d
00000060: a942 80bb 72b4 153c 31d0 263d 4581 143d
00000070: 61d4 093d 5e42 a3bd 59e9 3d3d 1e0d 81bd
00000080: 430d 78bd 983e 783c c160 40bd 4afe 0cbe
00000090: 04f4 bebd d623 253d d511 e03c 9475 b5bd
000000a0: 2438 743d eba6 093e 1bc0 313d 6f48 473c
000000b0: ea5e 0fbd bf68 adbc e28f 88bd be1e 913c
000000c0: f4a4 15bd 349b 42bd 62f4 813d c917 e6bb
000000d0: 53c8 0a3c 27c1 f63d 56a3 ae3d 3e1c ee3d
000000e0: 2f6e b03d abe4 e43d ff17 273e 9e59 a13d
000000f0: 2b61 d53d 42b5 b53d d22d f53d 2363 aebb
00000100: 2dba bb3c 11a3 f03d 63b7 5cbc b773 c2bc
00000110: 102d a03d 0e02 273b 156a 813d e6b7 393d
00000120: 9cdc e23c 5660 89bc 2c5d 62bd 6b4c 4d3c
00000130: 1c57 38bd 9734 f9bc a122 f5bb ad6c 50bd
00000140: 9ce2 ccbd 507b a4bc 1cc2 8bbd 984a 96bd
00000150: b239 83bd fec1 a8bd a0f3 b6bd e1e8 27bd
00000160: 5cc6 aebd 9620 00bd 217b 6e3d 2ad4 993d
00000170: e2df 45bd fbce acb9 37b9 153d ad73 a4bd
00000180: 705d 94bd 3470 a83d 5894 54bd 330c 463d
00000190: cf51 fdbd b290 07bd 893d 593d 1119 a3bd
000001a0: 1264 193d 8f99 21bd 9abc 7d3b 6754 afbd
000001b0: e20e babc 410d c5bc f10a 993c 1e21 01bd
000001c0: 0d95 68bd 42cb 1c3d b005 6b3d 3381 e73c
000001d0: 631d 2bbb 0c44 e5bc fc6a cb3b b7c3 9f3c
000001e0: b3e2 c5bc 9fff e4bd 0ce9 4d3d 92e1 71bc
000001f0: b6da 61bd 216d 883c c600 a53d 91af 953d
00000200: ae17 133e 82b0 093e 30a9 b23d 127c a83d
00000210: 05b7 693d 8b33 8e3d cee1 863d 5627 a83d
00000220: 6b34 173d d391 7ebb 279e 833d 8671 c23c
00000230: 432f 72bc 804a 6a3d 23e0 c03c 10c8 a9bc
00000240: 1312 113d 4f7e 57bc a549 823b f5a6 243d
00000250: 1d84 e63b 902d 953c f763 5c3d 5f00 c03c
00000260: de54 7d3d 36fd d8bd afe0 a63b 9273 17bd
00000270: bea2 9abd b78a 75bd 210d 41bc b70e dcba
00000280: 4be9 93bc 304c 5abd 05ad fabc 6e19 abbc
00000290: 8753 a4bd 2ff2 b4bd e2b3 003d 56a2 3abc
000002a0: 4d9b 47bd e922 603c d52e a3bc 3018 ecbc
000002b0: 673b e93d 454a f0bc 015f d7bc f966 b63d
000002c0: 9b2a 91bb 16b7 023b 0084 f43c aa24 aabc
000002d0: e5ec c4bc 3310 28bc 74b2 b0bb a226 9e3b
000002e0: aebe d0bc 87bf ee3c 3ff5 7bbc c65d dfbd
000002f0: bdbd 0cbc 73c9 f2bc f80e 0fbd 74fa b23b
00000300: 180e 98bd 88fb f6bb b8a2 043d 5264 05bd
00000310: ddd6 efbc 5909 36bc 9c88 503d 067d 0e3e
00000320: f968 1d3e c0dd a7bd 9205 413e 3b6d 0e3e
00000330: 865c 80bd 35dc 8e3b 6d5f 443e 25f6 ac3d
00000340: 0d91 93bc 0a09 babd 6a15 6f3d 83c8 d53c
00000350: b881 7fbc defa 653d d002 ea3c 0ae2 ce3a
00000360: c19a 603c f544 9ebc 0f07 9d3b ea13 b83d
00000370: 254b e4ba ec8e e13b 7777 0e3e 18eb cd3d
00000380: 9793 58bc ab04 edbc 43e9 1ebc fbaa 3ebd
00000390: 02f1 73bc 578c b2bd 7933 7abe 7cbd 403d
000003a0: 5b35 18be 15dc febd 2847 813c a8b1 bdbd
000003b0: 3841 abbc ef79 513c 792d 10bd 8e6d f8bc
000003c0: 43c4 19bd cfe2 6bbc 3d7a cd3c cf31 df3c
000003d0: b9b2 ca3d acfc 093e 903b 433d da31 a8bc
000003e0: 08ee 093e 3c97 ff3c 0fbc 763d e5f2 013e
000003f0: 90f5 013e 43b1 fc3c bf2a 783d 7efc c83d
-0.02235013 -0.02792125 0.02247948 -0.023172718 -0.010286285 -0.08021755 -0.046283342 0.055557393
0.008607333 0.065851994 0.13278894 -0.08014984 0.12213345 0.069867395 -0.06803839 0.023825323
-0.012495833 -0.057324957 0.10150422 -0.035058923 0.08708722 0.009316736 -0.043666966 0.050057422
-0.0039141965 0.00913726 0.04072589 0.036256094 0.033649806 -0.07971643 0.046365116 -0.0630133
-0.060559522 0.015151642 -0.04696727 -0.13768879 -0.09323886 0.04031738 0.027352253 -0.08860317
0.059623852 0.1344258 0.043396097 0.012163266 -0.035002626 -0.02116811 -0.066680685 0.017714854
-0.036534265 -0.047511294 0.063454404 -0.0070218784 0.008470613 0.1204856 0.085272476 0.116264805
0.08614766 0.111764275 0.16317748 0.07878421 0.10418924 0.08872463 0.1197163 -0.0053218766
0.022915924 0.117498524 -0.013471457 -0.023736818 0.07821095 0.0025483402 0.06319062 0.045341395
0.027693085 -0.01676957 -0.055264637 0.0125304265 -0.04500495 -0.030420585 -0.0074809347 -0.05088489
-0.1000416 -0.020078331 -0.06824133 -0.073384464 -0.06407489 -0.08240126 -0.089331865 -0.040993575
-0.08533928 -0.031281076 0.058222894 0.0751117 -0.048309214 -0.0003296061 0.036553588 -0.08029876
-0.07244384 0.08224526 -0.051899284 0.048351478 -0.123691194 -0.033096977 0.0530372 -0.079637654
0.03744895 -0.039453086 0.0038717152 -0.0856102 -0.022712175 -0.024054172 0.018681975 -0.031525724
-0.05678277 0.03827978 0.05737847 0.02825985 -0.0026110045 -0.027986549 0.006207822 0.019502504
-0.02415595 -0.11181568 0.05027108 -0.014763253 -0.05514022 0.0166536 0.08056788 0.07308877
0.14364502 0.13446239 0.08723676 0.082267895 0.057059307 0.06943425 0.065860376 0.08210628
0.036915224 -0.0038844242 0.064266495 0.023735773 -0.014781776 0.057199955 0.023544377 -0.02072528
0.035417628 -0.013152673 0.0039760643 0.040198285 0.007034792 0.018210202 0.05380627 0.023437677
0.061848514 -0.10595171 0.0050927023 -0.03697545 -0.07550572 -0.059946742 -0.011782915 -0.0016789053
-0.018055579 -0.053295314 -0.03060008 -0.02088615 -0.08023744 -0.08835255 0.03142155 -0.011391243
-0.04873209 0.013680198 -0.019919792 -0.028820127 0.11388283 -0.02933229 -0.026290419 0.08906359
-0.004430128 0.0019945554 0.029848099 -0.020769436 -0.024038741 -0.010257768 -0.005392367 0.0048263827
-0.025481548 0.029144062 -0.015378295 -0.10906558 -0.008590159 -0.029637074 -0.034926385 0.0054619852
-0.07424563 -0.007537309 0.032381743 -0.032566376 -0.02927726 -0.011110627 0.05091153 0.1391488
0.15372075 -0.08196592 0.18849781 0.13908856 -0.062676474 0.004359747 0.19177027 0.08445386
-0.018013502 -0.09083755 0.05837003 0.026096588 -0.015594892 0.05614745 0.028565794 0.0015783918
0.013708771 -0.01931999 0.004792101 0.08988173 -0.0017417414 0.0068834927 0.1391276 0.10054606
-0.013218782 -0.02893289 -0.009699169 -0.04654978 -0.014889004 -0.08718174 -0.24433698 0.047055706
-0.14864103 -0.12444321 0.015781 -0.09262401 -0.020905122 0.012785419 -0.035199616 -0.030325677
-0.037540685 -0.014397337 0.025082702 0.02724543 0.0989737 0.13475293 0.047664225 -0.020531584
0.13469708 0.031200044 0.06023794 0.12690313 0.12691331 0.030846244 0.06058764 0.09813784

block2.0.conv1.bias f4 [64]
00000000: 8c46 93bd 108d 653c 5e13 17bd b9df a4bc
00000010: c8c1 79bc 424f 01bd f78d 3dbd 8bb2 a0bd
00000020: cfee d3bc 0072 3d3c 69c2 4ebc b481 d33b
00000030: 1962 bbbc d133 82bd 3a89 44bd fd1b d5bc
00000040: 018b b2bd 9906 27bd cdc7 54bd 3bb0 5ebc
00000050: a92f a3bc 5a2c 39bd e21e 40bd 7a25 1bbd
00000060: 4e56 5abc 1788 fcbc e3ec 69bd 65ef cc3a
00000070: b903 87bd 1806 3ebd d9af fdba b9b1 eebc
00000080: 984d 7cbd a041 d2bc 22cd e83b 25e2 ecbc
00000090: e4cc 6ebd 40fe 0abd ae12 973b fc64 ad3c
000000a0: 90bb 3bbd aa45 f53c ecf7 903c 9461 90bd
000000b0: 176b 57bd 3a37 68bd c18d bb3c 2163 48bd
000000c0: 53d9 2bbd dbc9 a138 d667 38bd 213b 5abd
000000d0: e38b 1f3d 8b4d 04bd 388c 58ba 97b1 7d3b
000000e0: 1097 92bc 9990 8abc 9455 91bc 618f 9bbc
000000f0: 8deb cf3b ce11 9dbd ee5b 9dbc ad39 87bd
-0.0719119 0.014010683 -0.036883704 -0.02012621 -0.015243955 -0.031569727 -0.046277966 -0.07846554
-0.025870709 0.011562824 -0.012619593 0.006454671 -0.022873925 -0.063575394 -0.047982432 -0.026014322
-0.08717919 -0.040777776 -0.051948357 -0.013591821 -0.019920187 -0.045208313 -0.046904452 -0.037877537
-0.013326241 -0.030826611 -0.05711068 0.001563531 -0.06592507 -0.04639253 -0.0019354775 -0.02913748
-0.061597437 -0.025666058 0.007104532 -0.028916428 -0.058300868 -0.033933878 0.004610381 0.021166317
-0.04583317 0.029940445 0.017696343 -0.070498616 -0.052592363 -0.056693293 0.022894742 -0.04892266
-0.041955303 7.714677e-05 -0.0450209 -0.053279046 0.038951766 -0.032300513 -0.00082606403 0.0038710588
-0.017894298 -0.016914653 -0.017741002 -0.018989267 0.0063452185 -0.076694116 -0.019208875 -0.06602798

block2.0.conv2.weight f4 [64, 64, 5, 5]
00000000: de56 a9bd 038b 07be b0ec 06bc 4d70 20b9
00000010: 751b 1c3c c7b0 f2bc 8f58 a8bd 3861 a73b
00000020: 81ca d43c e396 2b3d 1e5e 42bd 59a2 81bd
00000030: 14eb 46bc 5029 103d 9644 d43d 1083 36bd
00000040: 2d25 a5bd 112f 14bd 33dc 003d 20a0 653d
00000050: 5bea aebd 33b7 77bd 5b1b ddbd 1f5d e53b
00000060: a26a 3dbb 8d03 39bd b1bf 073b 0aa4 fabc
00000070: f6f9 333d 0702 ed3d 7111 c8bd 421b c63c
00000080: fb7d 96bc b776 babc f0c8 403d 70e1 8fbd
00000090: 79a2 2c3b a240 9ebc 953b 42bd b670 d6ba
000000a0: eca7 b9bc fec7 4c3c 7a0b 90bd 6aea 333c
000000b0: 20cf bc3c 0de9 86bd 8860 a6bd 5176 23bc
000000c0: 2367 bdbc b4de 1e3d d1a6 b5bd 8033 693c
000000d0: 0388 133e 2f49 b4bc 4d43 233d 7bf3 e23b
000000e0: d8a6 85bd c505 403c d160 003e 17fd 193e
000000f0: 7c87 49bd 3141 e03c e79b 293d 7549 5e3d
00000100: f195 da3c e2b1 fb3c 5348 74bb e222 313d
00000110: b7a4 bb3d 75c3 d33b a4cd d83d 8e71 18be
00000120: 4421 033d 50c7 383d e85c 113d 578a d7bd
00000130: edd0 b93c 3aa1 fc3b 4440 e63c 4b88 7f3d
00000140: 751a 76bd 8e46 babb cf2d 6a3d 434a 243d
00000150: 3014 ac3d 701e da3c 3c66 37bd dc3d bc3c
00000160: fdcc 8c3d 6260 a53d 80fa a23c 9d9c a73d
00000170: 79e5 843c 3f20 27bc 07a1 9a3c 9a55 293d
00000180: 95b3 1dbd 2049 1d3d 7465 853c 8c53 e63c
00000190: 2b0f 853c 25c6 c4bc 6d83 1dbc ed61 b5bd
000001a0: 0aa6 32bb 09b2 c03b c04d c8bc d17c b8bc
000001b0: 942b 05bd 79fc df3c 07f7 e53c aed3 433d
000001c0: 6d0f 5b3c 0b25 893d 6a25 933d f6f0 453b
000001d0: fd0a dbbc b79d f3bc ab44 cfbc 12bc ad3b
000001e0: 17b1 59bd fdad 3b3c 891f 8f3c 749f 463d
000001f0: 3d27 fe3c b3c5 f1bd 13e2 08be e086 c0bd
00000200: 1ffb a8bd b67e c7bd 52fa 06be ff04 03be
00000210: ac00 79bd a41b a6bd 25a7 e7bd 8a0d eabd
00000220: 4dc0 9fbd 34ad edbd d48b bebd 2997 24be
00000230: 69ce b8bd df12 bfbd b9ad f9bd 312e 8fbd
00000240: 0de4 b1bd f5c2 c5bd 0110 08be fd9b 02be
00000250: 16ba 03bd e055 e9bd eb5b c5bc 43fa 5dbd
00000260: 9f2c 69bd 69cb 4cbd a4eb 8abd 9317 2bbd
00000270: 0390 73bd c5dd 80bd c494 87bd 8eaf 21bd
00000280: 5226 62bc b476 d53b 38bb d8bc b81e 54bd
00000290: aefd 1bba 0875 4fbd 0526 74bc bc6e 8e3b
000002a0: b53e 33bc 1278 d53c 2033 3abd 718f d5bd
000002b0: 64a4 a2bd ce7c febc 3c1e 8dba ead8 6c3b
000002c0: e854 e33d 50a5 863d ff3a c43c 0908 84bd
000002d0: acf6 f2bc 5852 693d 805f 383c 4289 ec3c
000002e0: 4a89 c33c 6274 49bd 2843 03ba e562 70bc
000002f0: 1f24 043d 75dc 973d e7d4 0abd 21ff 1ebd
00000300: 4ab0 57bd 657d 92bc 2d6b 243d b42c db3c
00000310: bd70 49bd 0077 16bd 40bc ccbc 023f 35bd
00000320: e44e 723d a7f8 a43d 9493 c9bb 8fea 113c
00000330: 930e 0bbd 0ee3 eb3c 3e93 043d f76c 26bd
00000340: 4ca1 24bb d916 03bd 2bb5 f83c ea76 b1bc
00000350: b786 1dbc 6bc5 aeba dc49 8fbc 7efd d9bc
00000360: 5ef1 e0bc d36c 803a 5ecb 9f39 4ff4 c8bd
00000370: 11ce 753c 3b65 98bc 0125 6e3c 3140 073c
00000380: e16c 26be 0a06 3ebc f5ca 843d 6e1c cdbc
00000390: 1a18 9e3b f1d0 49bd 6730 c0bc 9757 843d
000003a0: 70c1 dd3b 31b4 4dbc f0b7 033d 462f 58bd
000003b0: 74b4 173c 58b3 653c 001a 473d 96cf 813d
000003c0: fa33 a039 1e45 31bc ac9d 8fbb 97df bc3c
000003d0: 6991 c03c 4bf4 d0bd 2eb2 f7bc 9172 2bbd
000003e0: 09c6 003c 27d2 23bb ef09 91bd a5e8 683c
000003f0: 76db edbd 72ae 79bd 3657 143c 608a de3c
-0.08268522 -0.13236623 -0.008235142 -0.00015300624 0.009528031 -0.02962531 -0.08220016 0.005108025
0.025975468 0.041891944 -0.04745304 -0.063297935 -0.012141008 0.03519565 0.10364644 -0.044558585
-0.08063731 -0.0361777 0.03146 0.05606091 -0.085407935 -0.060477447 -0.10796233 0.0069996263
-0.002890267 -0.045169402 0.0020713622 -0.030595798 0.043939553 0.11572652 -0.09768952 0.02418292
-0.018370619 -0.022761686 0.04706663 -0.07025421 0.0026341958 -0.019317929 -0.047420103 -0.0016360495
-0.02266308 0.012498854 -0.07033439 0.010981182 0.023047984 -0.0658742 -0.081238806 -0.009976939
-0.023120468 0.038786605 -0.08869708 0.01423347 0.14407353 -0.022007553 0.039859105 0.006925998
-0.065259635 0.011720126 0.12536933 0.15037952 -0.049201474 0.027374836 0.041408446 0.054269273
0.026682826 0.03072447 -0.0037274554 0.043246157 0.09162276 0.0064625093 0.10586098 -0.14887068
0.032014146 0.045111954 0.035488993 -0.10524433 0.022682631 0.0077096494 0.028106816 0.06238584
-0.060083825 -0.0056846803 0.057172593 0.040109884 0.08402288 0.026625842 -0.044775233 0.022978716
0.06875036 0.08075024 0.019894838 0.081841685 0.016222702 -0.010200559 0.018875612 0.0413414
-0.03850134 0.038399816 0.016283728 0.02811601 0.016242584 -0.024020264 -0.009613854 -0.088565685
-0.0027259612 0.0058805984 -0.024451137 -0.022520455 -0.032512262 0.027342068 0.028071893 0.047809295
0.013370377 0.066965185 0.071848705 0.0030203438 -0.026738638 -0.02973829 -0.025301298 0.0053019607
-0.0531474 0.011455056 0.017471092 0.04849191 0.03102457 -0.11805286 -0.1336749 -0.09400725
-0.082510225 -0.09740965 -0.13181427 -0.12794875 -0.060791656 -0.08110741 -0.11311177 -0.114283636
-0.0780035 -0.116053015 -0.09304014 -0.16073288 -0.090237446 -0.09329771 -0.12191338 -0.06991232
-0.08686075 -0.09656326 -0.13287355 -0.12754817 -0.032159887 -0.113933325 -0.024091681 -0.054193746
-0.05692732 -0.049998675 -0.06783226 -0.04177053 -0.059463512 -0.06292299 -0.06620172 -0.039474063
-0.013803082 0.0065143947 -0.02645646 -0.05178711 -0.0005950582 -0.05064872 -0.014901643 0.0043466967
-0.0109402435 0.02605823 -0.045458913 -0.1042775 -0.07941511 -0.03106537 -0.0010766457 0.0036140033
0.11100179 0.065744996 0.023953913 -0.06446845 -0.029658638 0.056963295 0.011253238 0.028874043
0.023869175 -0.049183257 -0.00050072605 -0.014672016 0.03226101 0.07415096 -0.033894446 -0.03881753
-0.052658357 -0.017882058 0.040141273 0.026754715 -0.04917978 -0.03673458 -0.024992108 -0.044249542
0.059157267 0.08055239 -0.006151626 0.008906021 -0.033949446 0.028794792 0.032366984 -0.04063126
-0.0025120554 -0.03200421 0.030359825 -0.021663148 -0.009614638 -0.0013333982 -0.017491274 -0.026610132
-0.027458843 0.0009798057 0.00030478364 -0.09812223 0.015002743 -0.018602958 0.01453519 0.0082550505
-0.16252472 -0.0115981195 0.064840235 -0.02503797 0.0048246505 -0.049271528 -0.02346058 0.06462019
0.0067674443 -0.012555168 0.03215784 -0.05277946 0.009259332 0.01401981 0.04860878 0.06338422
0.00030556304 -0.0108197015 -0.0043828096 0.023055835 0.023506837 -0.10202845 -0.03023633 -0.041857306
0.007859715 -0.0024997087 -0.07081973 0.014215623 -0.116141245 -0.06095738 0.009053996 0.027165592

block2.0.conv2.bias f4 [64]
00000000: c81c fdbc 1f74 aebd 3bfa 42bd 5ed3 5dbd
00000010: 7fc8 4dbd 0c33 3ebd e0ea 94bd afd7 0fbd
00000020: 2891 81bd ba88 6cbd 3f82 39bd 97ec aebd
00000030: 3620 40bd 733d fbbc 10db a6bd 7422 d2bb
00000040: a133 95bd 0517 8ebc 1d6e e9bc fc52 92bd
00000050: c91c 22bd bce2 e0bc 6cdc b2bd bad1 62bd
00000060: c88f 2cbd 9917 86bd 315d 50bd fe35 78bd
00000070: 4520 b5bc c73e 11bd 008f 6dbd 16dc 253b
00000080: 12c7 4e3b cc8e 39bd c8c0 27bd 37a8 07bd
00000090: 0269 35bd dad5 f6bc 9f76 82bd 9ddb c1bc
000000a0: d6b5 76bd e07f 4abd 7d67 a7bd 2133 e6bc
000000b0: 0fa7 80bc 7a92 a9bc 3b73 36bd ba06 cfbd
000000c0: ed40 f8bc 929a f0bd 3e3e 86bd 5350 eabb
000000d0: 7f90 1ebd 9b8c 11bd 75a5 40bd 3ecc f1bd
000000e0: c087 c4bd 3309 8cbd abcb 7cbd a4df 84bd
000000f0: 39a3 32bd 86ee debc 3074 9bbd 85a5 0abc
-0.030897513 -0.08518242 -0.04760192 -0.054156654 -0.050240036 -0.0464354 -0.07271361 -0.0351178
-0.063265145 -0.05774758 -0.045290228 -0.0854122 -0.04690572 -0.03066895 -0.081472516 -0.0064127985
-0.07285238 -0.017344961 -0.028494889 -0.07144734 -0.039578233 -0.027451865 -0.087334484 -0.055375792
-0.042129308 -0.0654747 -0.050870124 -0.060598366 -0.022110114 -0.03546026 -0.057997704 0.0025308183
0.003155176 -0.045302197 -0.040955335 -0.033119407 -0.044289596 -0.03013127 -0.063702814 -0.02366429
-0.060232006 -0.049438357 -0.08174036 -0.028100552 -0.01570466 -0.020699728 -0.044543486 -0.10108705
-0.030304397 -0.11748232 -0.065548405 -0.0071506887 -0.03871202 -0.035534482 -0.047032792 -0.11806534
-0.09596205 -0.06837692 -0.06171767 -0.064879686 -0.043612693 -0.027213346 -0.075905204 -0.0084623145

block2.0.conv3.weight f4 [64, 64, 1, 1]
00000000: 82bb 37bc 968a edbc 63ee 9dbd e30d 323d
00000010: c138 103e 8136 d23d b579 543c e8ed 18be
00000020: 0875 ad3a 1caf 11be 1aca 123e 141a 3fbe
00000030: c0e9 553c 6ada 34bd 9eb5 953d 1054 13be
00000040: 0bdf 40bc c956 e6bd 4e30 55bd dba7 45bc
00000050: 9797 9c3c 3b1b a73d 3d97 4c3b fff2 92bd
00000060: 0854 093d 4f71 4b3b dbd1 7c3c 481e b9bc
00000070: d14a 66bd 763c cdbc 0ac5 ba3d 4c2a 17bc
00000080: 38dd ac3d 5ae5 94bd c74a 14bd 1fb5 acbd
00000090: 631e bfbd 6ae9 573c cee0 fabd d988 1abd
000000a0: 9f80 fbbb f456 0c3e 2bb0 573d 2530 26bd
000000b0: 1ca2 123d d69d 1abd 2b91 9d3d d3b7 b0bd
000000c0: d50c 81bb 92db 36bd e7bf 4abd bee1 22be
000000d0: 5ba9 0d3c 41bc 29bd 5e8c 13bd 562f f53c
000000e0: 4230 f53c 0a5a c2ba 8788 123e 0b09 3f3c
000000f0: c397 613d 1e0e c7bd 6baf 9fbc 7765 a73b
00000100: 154d 0abd 1e03 263c 7dbc a73d 8ca7 d2bd
00000110: 55d8 633c 188d 66bd 31cc a53d 686e 1cbc
00000120: b1c4 863d befb b9bc ecfe 993d a6fd b2bc
00000130: a067 a6bd 2dbb 033d 0344 d33d 24c0 703c
00000140: ee48 d93b 6c26 073d d94c b3bd f74c 213d
00000150: 78dd 843c e48b 61bd a62a 8dbd 0162 82bd
00000160: a01a 743d d72e b93d 9a09 093d b9c0 973c
00000170: 730c b5bd 21bb 9d3d dd06 b53d 71d5 27bd
00000180: e515 fcbb dcf4 6ebc a3fd c537 eca3 1ebe
00000190: 41ff 1dbd 16d0 b33c 77bb debd 107a b13d
000001a0: 2df7 223d f1bf 453d ac6c 04be d607 48b8
000001b0: 56ad 423d 1569 abbd cb08 8cbd e555 babd
000001c0: 63fa a33d 5457 1c3d 4081 e1bc 2bee c4bc
000001d0: efbf 833d a61b 6b3c d1e8 a0bb 7e76 2cbd
000001e0: b269 9abd fc85 c4bd 9a0e 963d 1bd4 e5bd
000001f0: 36e9 a0bd 666c 8dbb 6b59 05bd 4cea a9bd
00000200: aa47 f53c eb7c 88bd 4471 6dbc 64e3 dabd
00000210: 3f86 85bc 3be0 79bd 4ece 8d3d c577 c1bc
00000220: 5af8 933a 61f0 29bd 6a63 703c 0ed5 d1bd
00000230: a6f2 273d 1045 7dbc f19a 3d3d f161 9c3c
00000240: 2820 903c e97e babd a59e cf3d 3fa5 ac3c
00000250: e39a 5bbc e1f1 5fbd 2a4d b1bd e4f6 93bd
00000260: 4b89 973c 2b9e 35bd cbfb 1cbd d5ed b0bc
00000270: 0c8d 1d3d e1e2 22bd fdc0 b43d ee20 adbb
00000280: d4e7 e7bb edb9 1ebd cac0 f5b9 ca73 d7bc
00000290: 1191 9ebd bab1 dc3c 1754 67bd e292 36bc
000002a0: 6724 68bd 3a65 00bd 223e 22be d92b f3bb
000002b0: cd2e 233d fdb6 4d3d d2c5 873d 81b1 843d
000002c0: 3427 92ba 01c5 e1bc 7e8d 733d ec6c 9fbd
000002d0: 4884 bdbc 666f 13bd efcd 3a3d fcb9 543d
000002e0: 6e20 26bd 1aeb eb3a ea41 8d3d 1ea8 01bd
000002f0: d103 243c 075a a7bc 71e6 ff3c 9fe4 e5bc
00000300: 12db cebc d133 15be a00b ad3d 862a bb3c
00000310: d87b 8e3d 22d7 2a3b c1f8 3b3d 1822 ce3d
00000320: d906 9d3d ecd4 fbbd 71b1 c83a 4f9c 89bd
00000330: be59 4bbd 61e4 85bd c907 6a3d f951 d8bd
00000340: bd9f 623c 661a 1cbe faf1 b7bd 6fd9 633c
00000350: aba7 963d da4f c13d c68a 9a3d cd8c 133d
00000360: 0d7d 8d3d 69f6 d83c fce1 ab3d dcad ad3d
00000370: 488c 963d e773 e13d 5a1e 863d b7e0 5dbd
00000380: 375c dc3d a216 bbbd 9078 e53c f191 cdbc
00000390: fd9e fbbd 947c a8bd 6356 683c 6d66 8fbd
000003a0: 0692 d1bc 0a78 59bc a92e 09bd 671d 3fbd
000003b0: 54de 273c ea01 85bd 3654 ae3d 0c5b 29be
000003c0: 6a11 f9bd e844 f93c ab37 513c a4f9 babc
000003d0: 8540 54bd 9491 06be 1cf2 503d 8a49 66bd
000003e0: 2b39 963d ed55 7fbd 39a4 83bd baa6 ffbc
000003f0: b47b 94bc f303 45bd b926 bcbc bb07 d0bd
-0.011214139 -0.028996747 -0.07711484 0.043470275 0.1408415 0.10264302 0.01296847 -0.14934504
0.001323373 -0.14226955 0.14334908 -0.18662292 0.013056219 -0.04415361 0.07310031 -0.14387536
-0.011771928 -0.11247022 -0.05204802 -0.012063946 0.019115252 0.08159491 0.0031218075 -0.07175254
0.033527404 0.003104288 0.015430893 -0.022597447 -0.056223694 -0.025053244 0.091196135 -0.009226393
0.08440632 -0.07270308 -0.036204126 -0.084329836 -0.09331968 0.013178209 -0.12249909 -0.037728164
-0.007675245 0.13705045 0.05265824 -0.040573258 0.03579913 -0.03774818 0.07693704 -0.08628812
-0.0039382973 -0.044642992 -0.04949942 -0.15906426 0.0086463345 -0.0414393 -0.036022536 0.029929798
0.029930238 -0.0014827859 0.14309894 0.011659871 0.055076372 -0.097194895 -0.019492825 0.005108531
-0.033764917 0.010132579 0.08190248 -0.10285863 0.013906558 -0.0562869 0.08095587 -0.009547807
0.06580485 -0.022703048 0.075193256 -0.021849465 -0.08125234 0.032160927 0.103157066 0.014694247
0.0066310083 0.032995626 -0.08754892 0.03938004 0.016218886 -0.05506505 -0.068929 -0.06366349
0.059595704 0.09042137 0.033456422 0.018524515 -0.08840265 0.07701708 0.088392 -0.040975038
-0.0076930397 -0.014584746 2.3602339e-05 -0.15492219 -0.038573507 0.021949809 -0.108756 0.0866586
0.039786506 0.048278753 -0.1293208 -4.7691014e-05 0.047528587 -0.08369652 -0.068376146 -0.09098414
0.08006742 0.03816922 -0.027527452 -0.024039349 0.06433093 0.014349854 -0.0049105664 -0.04210519
-0.07539691 -0.09595868 0.07327004 -0.112220965 -0.078569815 -0.0043159006 -0.03255598 -0.08296642
0.029941399 -0.06664451 -0.014492337 -0.106879026 -0.016299365 -0.06100486 0.06924115 -0.02361668
0.0011289224 -0.04148901 0.01467214 -0.10245715 0.041002892 -0.01545836 0.04629034 0.01908967
0.017593458 -0.091062374 0.10137681 0.02107489 -0.013403627 -0.054674033 -0.08657296 -0.07224825
0.018498084 -0.044340294 -0.038326066 -0.021597782 0.03846459 -0.03976715 0.08825872 -0.0052834665
-0.0070771966 -0.03875153 -0.0004687368 -0.02630033 -0.07742513 0.026940215 -0.05647668 -0.011143418
-0.05667534 -0.031346537 -0.15844014 -0.0074209985 0.039839555 0.05022334 0.06629528 0.06479169
-0.00111506 -0.02755976 0.05946111 -0.07784447 -0.023134366 -0.03599491 0.04560655 0.05193518
-0.04055827 0.0017999143 0.06897338 -0.03165447 0.0100106755 -0.02042867 0.031237813 -0.028063117
-0.025250945 -0.14570548 0.08449483 0.022847425 0.06957215 0.002606817 0.045891527 0.100650966
0.07667322 -0.12296471 0.0015311671 -0.067192666 -0.04964613 -0.065377004 0.05713633 -0.1056251
0.01383203 -0.15244445 -0.089817 0.013906821 0.07356199 0.094390586 0.07546 0.03602295
0.06908617 0.026484685 0.083927125 0.08480427 0.07350975 0.11008435 0.06548758 -0.054169383
0.10759776 -0.09135176 0.02801159 -0.025094004 -0.12286184 -0.082268864 0.014180752 -0.07001958
-0.025582325 -0.013273248 -0.033491764 -0.0466589 0.010245878 -0.06494506 0.08512156 -0.16538638
-0.121615246 0.030428365 0.01276962 -0.022824116 -0.051819343 -0.13141471 0.051012143 -0.056222476
0.07335123 -0.062337805 -0.06427807 -0.031207431 -0.018125392 -0.04809947 -0.022967683 -0.101577245

block2.0.conv3.bias f4 [64]
00000000: 6c0b 05bd 5db8 65bd 0a5f 73bd 5347 4abd
00000010: d61d fdbc 0509 42bc b197 8dbd b035 e4bc
00000020: 9f39 54bd c2a7 50bd 43fa 26bd 8b8d 2bbd
00000030: fe7d b6bc 0154 acbb 8af9 bc3c 85ef 6abd
00000040: 2b35 33be 512f 9cbd 61a8 c0bc 5cbf 40bc
00000050: e307 193d a317 74bc 94ab dcbd 6438 b0bc
00000060: 18ea 54bd 9046 8ebd 5376 943d 89e9 40bb
00000070: fd3c b4bc 5d21 d53c e631 463d 6087 63bd
00000080: 2081 babd f294 99bd c52e 24bd b381 cfbc
00000090: b537 0abb 81fb e0bd aaad 62bd fd8c ddbd
000000a0: 5be9 9abd e14c 00bc 82e5 a7bc 401c d03c
000000b0: 3162 3ebd 3f61 23bd 4c1c 5d3c 42d1 65bc
000000c0: eb93 acbb 64cc 8b3c 6959 e7ba 72b5 90bd
000000d0: 2291 34bd aac7 38bd 9d28 78bd cf0b 99ba
000000e0: 679b 4abe 7c26 0ebc 231d 23bd dc33 8bbd
000000f0: 964a ae3c 9a6d 7ebd 4b48 a2bd 2074 42bd
-0.032481596 -0.056084026 -0.05941681 -0.049384426 -0.030898016 -0.011842971 -0.069136985 -0.027857631
-0.051812764 -0.050941236 -0.040766012 -0.041883033 -0.022276875 -0.0052590375 0.023068208 -0.05735733
-0.1750075 -0.076262124 -0.02351779 -0.011764374 0.037361037 -0.014898214 -0.107749134 -0.021511264
-0.05198106 -0.069470525 0.07249131 -0.0029436073 -0.022001738 0.026016885 0.04838743 -0.055549026
-0.0910666 -0.07499112 -0.040083665 -0.0253304 -0.0021090333 -0.109854706 -0.0553414 -0.10817907
-0.0756404 -0.007830829 -0.02049518 0.025404096 -0.04648036 -0.039887663 0.013495516 -0.014026942
-0.0052666566 0.017065234 -0.0017650548 -0.07065858 -0.044083722 -0.04511229 -0.060585607 -0.0011676493
-0.19785844 -0.008676168 -0.03982271 -0.06797001 0.0212758 -0.062116243 -0.07923945 -0.047474027

block3.0.weight f4 [3, 64, 3, 3]
00000000: d90b a03b 23d5 73bc d384 1a3d 2ad8 c6bb
00000010: 6446 853c cdae 543d 0405 49bb f134 a4bb
00000020: 3cbd ad3c 6f74 1ebc c113 06bd dd24 babc
00000030: 398d a8ba c385 bdba 6310 1abd bfa0 033d
00000040: b6c8 2dbd 807c ba38 3aa3 15be 91e8 233e
00000050: 79f2 193e 5b11 85be 5491 813e 851c 6c3e
00000060: 4e4b 09be b444 3b3e 496b 103e deba 423d
00000070: 3066 f8bc 97a5 3dbd 6e93 c23d a1cd 2bbe
00000080: 16a4 eebc 31d2 9e3c acce 21bd 3bea 3dbd
00000090: 1555 dfbd eaac ef3d f849 e03d d509 32be
000000a0: a530 5a3e accc 553e 1c33 dfbd e56b 763d
000000b0: 0a66 df3d d968 8abd 0ee9 b83c 76cf 443b
000000c0: 6500 d7bd 646b 153d 60b1 453d 85cd 78bd
000000d0: ffa5 913d c73e b73c 8cd0 79b9 99ea d8bc
000000e0: 41f3 5d3c 4e19 2abd fc1c 713d d723 2dbc
000000f0: bad1 25bd bd81 1fbc 6a3b 873c 6029 9a3d
00000100: d8f7 75bd d6bb 9fbc 92b5 bb3d cf56 08be
00000110: 0756 d7bd 7387 c13d a725 6dbd 4aba 89bc
00000120: 6ab9 923d 4419 3cbd 19be b9bd 1b87 103e
00000130: 3c7f e5bd ac8c 10be 6f63 b53d 7fc3 66bd
00000140: 34ad 68bd cb39 ae3c 9afe e53c d42d 8bbc
00000150: b163 cdbc 5322 76bc e4d0 2ebd 7c7d 42bb
00000160: feb9 0e3d 806b 013d a0d9 69bd 7ec8 113d
00000170: 6eea 723d df35 61bd c863 6e3d 4c80 603b
00000180: 6394 11bd 5e21 5b3c 003a 4cbc 0336 ac3d
00000190: 535c ebbd 4ad6 12bd 474c f33d fcd5 f6bd
000001a0: 8729 1cbe 4620 153e 1e5e bebd 4976 b7bd
000001b0: f5a6 013c 126c 103d 7e4d c23c 03a4 883c
000001c0: 1d99 80bc 2a8c 143d 91bb 1a3c 841d 0c3d
000001d0: 64f3 e23c f963 b7bc b312 e1ba ff06 99bc
000001e0: 4ef8 89bc 6c47 ebbc 7c2e 25bd efdc 30bb
000001f0: ddc3 d9ba d941 42bc 0b6d 9c3c 922c f03c
00000200: ad1b 183d 9ebb fd3c a39f ea3c 104e 2d3b
00000210: 17b3 3d3d e1ad 2fbc 3283 fe3c 0bd2 853d
00000220: 748d 143a ee92 60bc 8d2f 453d be66 9c3c
00000230: b978 293d 25bd 173d ef16 663b 458c d53b
00000240: d70f 8abc 6e9a 083d be27 9ebc cdb3 81bc
00000250: 09c6 0d3d b701 013d 5ab0 7ebb 82e0 283d
00000260: 35cd 16bd 6e5a d5bc 7802 8f3c 0f53 e53c
00000270: 1b4c 39bc 6f9b 283d 399f b83d 3c15 57bd
00000280: e3a0 7a3d d1bd 173d 4348 c4b9 c875 89bb
00000290: 72b6 a9ba 143f 203d 3feb ee3c 3c3a a43c
000002a0: 0ea7 8f3c 0379 d9bc 9d5c e83c 1603 adbb
000002b0: 4705 c0bc 16bf e5bc 4cf5 113d e958 87bd
000002c0: 04b0 6fbc 03d8 d3bc 8a96 b0bc 4eaa 81bd
000002d0: 2f60 07bd c257 54bd f37a 973b 4b78 8bbc
000002e0: be99 b4bc 4543 18bd eca0 6ebc e3bf 87bd
000002f0: 5590 49bc 0d1d 6f3c 9178 11bd a0fd bebd
00000300: 8c35 ccb9 64ff 40bd 599c f0bd 1181 d23a
00000310: aef1 40bd a449 a7bd 230f 10bc 1f1d 883c
00000320: 1e83 acbb b9a1 a83b 4235 723c 7cfe 5e3c
00000330: 545a 15ba 42ce 5c3c 6712 e33c 6dd4 c8bc
00000340: b265 22bb 237b 3a3c 56ef 1bbd b07e 9a3c
00000350: 0c33 483c afcc 4ebd 349d e6bb 8fa4 82bb
00000360: 5ad2 debb 4971 82bc 8fd7 c5bc c743 80bd
00000370: d9a9 87bd 34f8 853c 49be 83bd 63b5 06bd
00000380: 6c41 04bd cb01 e2bd 3083 db3d de05 fa3d
00000390: 53eb 2bbe 1639 073e 6b1c 1b3e a91f 4dbd
000003a0: 5ead b63d 9d96 f13d 0d0b 35bd 1861 92bd
000003b0: 219e 87bc 7dda 943c bc45 edbd bde5 953c
000003c0: 86c2 f4bb c679 32bc c7a3 333b 3c11 efbc
000003d0: 5795 f5bc 51ec 59bd f244 903c 3af6 38bd
000003e0: a650 e03b af9f a23c 63c7 453d 26e3 df3c
000003f0: ca52 7abc b9d1 c73c 6f7c 0c3c ff8c eebc
0.004884225 -0.014882359 0.037724327 -0.0060682492 0.016268916 0.051924516 -0.0030673156 -0.005011194
0.021208398 -0.009671315 -0.032733683 -0.022722656 -0.001285947 -0.001445942 -0.037613284 0.03213572
-0.04242774 8.892361e-05 -0.14613047 0.16006686 0.15033902 -0.25989804 0.2530619 0.23057754
-0.13407633 0.18287927 0.14103426 0.04754149 -0.030322164 -0.046300497 0.09500776 -0.1677766
-0.029130977 0.019387336 -0.03950374 -0.046365958 -0.109049 0.117029026 0.109516084 -0.17386563
0.21307619 0.20878857 -0.1089842 0.06016149 0.10908134 -0.06758279 0.022572067 0.0030030883
-0.10498122 0.03647937 0.04826486 -0.060742874 0.07111739 0.022368802 -0.0002382418 -0.026479052
0.013546766 -0.04152804 0.058865532 -0.010567627 -0.040483214 -0.009735522 0.016507823 0.07527423
-0.060050815 -0.019498747 0.09165491 -0.13314365 -0.10514455 0.09449663 -0.057897236 -0.016812462
0.07164271 -0.045922533 -0.090694614 0.14114039 -0.11205909 -0.14116162 0.08856856 -0.056338783
-0.056805804 0.021267792 0.028075505 -0.016989626 -0.02507195 -0.015022832 -0.042679682 -0.0029676845
0.034845345 0.03159666 -0.05709231 0.035591595 0.0593056 -0.054983016 0.058200628 0.0034256158
-0.035541903 0.013374655 -0.012465 0.084087394 -0.11492219 -0.035848893 0.11879783 -0.12052533
-0.15250216 0.14563093 -0.09295295 -0.08958108 0.007913341 0.035259314 0.023718592 0.01667977
-0.01569801 0.036266483 0.009444133 0.034207836 0.027703948 -0.022386538 -0.001717171 -0.018680094
-0.016842034 -0.02872058 -0.040327534 -0.0026987155 -0.0016614158 -0.01185652 0.019094964 0.029318128
0.03713577 0.030973252 0.028640574 0.0026444234 0.04631337 -0.010722608 0.031068418 0.06534203
0.000566683 -0.013706906 0.04814105 0.01909196 0.041374896 0.037045617 0.0035108884 0.0065169656
-0.016853256 0.0333504 -0.01930606 -0.015832806 0.03461269 0.031495776 -0.0038862438 0.041229732
-0.036816794 -0.026044097 0.017457232 0.027993707 -0.011309649 0.041163858 0.09014744 -0.052510485
0.06118859 0.037046257 -0.00037437872 -0.004194949 -0.001294805 0.039122656 0.029164908 0.0200473
0.017535713 -0.02654696 0.028364474 -0.005279909 -0.023440016 -0.028045218 0.035634324 -0.06608755
-0.014629368 -0.025859838 -0.021556158 -0.06331311 -0.033050712 -0.051841505 0.004622811 -0.017025134
-0.022045966 -0.03717353 -0.014564734 -0.06628396 -0.012302478 0.014594329 -0.03551537 -0.09325719
-0.00038949808 -0.04711856 -0.11748571 0.0016060193 -0.047105484 -0.08168343 -0.008792671 0.016615449
-0.005264654 0.005146232 0.014783205 0.0136104785 -0.0005697359 0.01347691 0.027718736 -0.024515355
-0.0024779853 0.011381897 -0.038070045 0.018859237 0.012219202 -0.05048817 -0.007037783 -0.003986902
-0.006799978 -0.01592316 -0.024150638 -0.062629275 -0.06624193 0.016353704 -0.064327784 -0.032887828
-0.032288954 -0.11035498 0.107183814 0.1220815 -0.16788988 0.1320537 0.1514756 -0.05007902
0.08919786 0.11796305 -0.044199992 -0.071474254 -0.016554894 0.01817059 -0.115855664 0.018298024
-0.007469478 -0.010893291 0.0027410851 -0.029183023 -0.029978437 -0.053203885 0.017611 -0.045156695
0.0068455515 0.019851534 0.048285853 0.027329993 -0.0152785275 0.024391996 0.008574589 -0.029119967

block3.0.bias f4 [3]
00000000: e4f1 77bc 0150 953c 3262 babb
-0.015133355 0.018226625 -0.0056879753
